…
Layer (type)                   Output Shape         Param #     Connected to                                       
==================================================================================================
 Layer (type)                   Output Shape         Param #     Connected to                     
==================================================================================================
input_1 (InputLayer)           [(None, 100, 21)]    0           []                               
                                                                                                
conv1d_1 (Conv1D)              (None, 100, 32)      704         ['input_1[0][0]']                
                                                                                                
max_pooling1d_6 (MaxPooling1D)  (None, 50, 32)      0           ['conv1d_1[0][0]']               
                                                                                                
batch_normalization_1 (BatchNo  (None, 50, 32)      128         ['max_pooling1d_6[0][0]']        
rmalization)                                                                                     
                                                                                                
activation_1 (Activation)      (None, 50, 32)       0           ['batch_normalization_1[0][0]']  
                                                                                                
batch_normalization_2 (BatchNo  (None, 50, 32)      128         ['activation_1[0][0]']           
rmalization)                                                                                     
                                                                                                
activation_2 (Activation)      (None, 50, 32)       0           ['batch_normalization_2[0][0]']  
                                                                                                
conv1d_3 (Conv1D)              (None, 50, 128)      4224        ['activation_2[0][0]']           
                                                                                                
batch_normalization_3 (BatchNo  (None, 50, 128)     512         ['conv1d_3[0][0]']               
rmalization)                                                                                     
                                                                                                
activation_3 (Activation)      (None, 50, 128)      0           ['batch_normalization_3[0][0]']  
                                                                                                
conv1d_4 (Conv1D)              (None, 50, 128)      16512       ['activation_3[0][0]']           
                                                                                                
conv1d_2 (Conv1D)              (None, 50, 128)      4224        ['activation_1[0][0]']           
                                                                                                
d3 (Dropout)                   (None, 50, 128)      0           ['conv1d_4[0][0]']               
                                                                                                
d7 (Dropout)                   (None, 50, 128)      0           ['conv1d_2[0][0]']               
                                                                                                
max_pooling1d_7 (MaxPooling1D)  (None, 25, 128)     0           ['d3[0][0]']                     
                                                                                                
max_pooling1d_8 (MaxPooling1D)  (None, 25, 128)     0           ['d7[0][0]']                     
                                                                                                
add_2 (Add)                    (None, 25, 128)      0           ['max_pooling1d_7[0][0]',        
                                                                'max_pooling1d_8[0][0]']        
                                                                                                
activation_4 (Activation)      (None, 25, 128)      0           ['add_2[0][0]']                  
                                                                                                
dropout_2 (Dropout)            (None, 25, 128)      0           ['activation_4[0][0]']           
                                                                                                
batch_normalization_4 (BatchNo  (None, 25, 128)     512         ['dropout_2[0][0]']              
rmalization)                                                                                     
                                                                                                
activation_5 (Activation)      (None, 25, 128)      0           ['batch_normalization_4[0][0]']  
                                                                                                
dropout_1 (Dropout)            (None, 25, 128)      0           ['activation_5[0][0]']           
                                                                                                
lstm_1 (LSTM)                  (None, 256)          394240      ['dropout_1[0][0]']              
                                                                                                
flatten_1 (Flatten)            (None, 256)          0           ['lstm_1[0][0]']                 
                                                                                                
fc5832 (Dense)                 (None, 5832)         1498824     ['flatten_1[0][0]']              
                                                                                                
activation_6 (Activation)      (None, 5832)         0           ['fc5832[0][0]']                 
                                                                                                  
==================================================================================================
Total params: 1,920,008
Trainable params: 1,919,368
Non-trainable params: 640
__________________________________________________________________________________________________
…
